home/.config/google-chrome/optimization_guide_model_store/20/EEE9864B3DB2E922/5EE767BA524B3A8B/model.tflite (tflite, 64852 bytes, 5 tensors)

arith.constant f4 [1, 64]
000000 5b 7c 5e 3e 75 d8 8d 3e 9e 27 ce 3d e2 f4 bf 3e
       0.21727125 0.27704206 0.1006615 0.37491518
000010 dd 38 11 bd 1f 7b 9a be a8 32 06 3e e2 42 81 3e
       -0.03545462 -0.3017206 0.13105261 0.2524634
000020 74 0d 56 3e 87 9f be 3e 8c ad 07 3d 9c 26 a1 be
       0.2090357 0.37231085 0.03312449 -0.3147477
000030 46 93 03 3e 8b 36 96 3e 0b 02 5a be f7 13 4b be
       0.12849149 0.29338488 -0.21289842 -0.19831835
000040 8f 81 54 be fe 45 3c 3e 27 99 a3 bd 3d 3f 89 be
       -0.20752548 0.18386075 -0.07988196 -0.2680606
000050 f0 9c d1 3d 46 8f 8e 3e cf 1b 78 bd e9 6e 8b 3e
       0.102350116 0.27843684 -0.060573395 0.27233055
000060 de f2 a2 3e e3 c3 1e 3e 07 fc e2 3d a9 54 c6 be
       0.31825918 0.15504412 0.11083227 -0.38736466
000070 99 2b 55 3e 9e a1 01 be 24 f1 8a 3d 04 26 be 3d
       0.20817412 -0.12659308 0.06784275 0.09284595
000080 35 9a 3a be 22 d8 2b 3e 65 75 6d bb 92 61 6f 3e
       -0.18222888 0.16781667 -0.0036233303 0.23377064
000090 bc a6 bc be 51 cd 8e be d7 5b a0 be 0e 2d 15 3e
       -0.36845958 -0.2789102 -0.31320068 0.14567968
0000a0 5b da 5b 3e 8d 7e 87 3e 97 d4 b3 3c 44 32 9f 3e
       0.21470015 0.26463738 0.021951957 0.31093037
0000b0 9a 17 93 3e c2 99 79 be d0 43 03 bd 8f 8d fe 3d
       0.28728944 -0.2437506 -0.032047093 0.12429344
0000c0 94 3b 53 3e 2b 93 80 bd a3 80 8c be 95 75 8e be
       0.20628196 -0.0627807 -0.27441892 -0.27824083
0000d0 4d a5 53 3d 4f 81 1f 3e ee fc cf 3c 7b 00 11 be
       0.051671315 0.15576671 0.025389161 -0.1416034
0000e0 83 6d 9e 3e 6e 6b 7a be 71 8b 5b be 7e be bf 3d
       0.30942926 -0.24455044 -0.21439911 0.093625054
0000f0 e7 33 1d be f7 58 71 3e d3 ab 18 bd 77 3c 42 3d
       -0.1535183 0.23569094 -0.03727324 0.047420945

arith.constant1 f4 [64, 128]
000000 d5 54 13 be d4 e6 b1 3a f7 43 34 3e de 1b cd bd
       -0.1438783 0.001357282 0.17604052 -0.10015081
000010 a1 1d 8c 3d 4c 69 6d bd 21 ed 16 be 9a ec db bd
       0.06841589 -0.057961747 -0.14738895 -0.107384875
000020 66 e8 f6 bd b2 a3 9f 3d 49 bf d6 bc 94 04 c7 3d
       -0.12056045 0.07794894 -0.026214259 0.0971767
000030 c8 3a 00 be 5d c8 e4 3d 72 78 7d 3d 39 fc c6 bd
       -0.12522423 0.11171029 0.061882444 -0.097160764
000040 f1 87 26 3d ca 13 f7 bd 2e c3 0b 3e ed 9d f0 3a
       0.040656988 -0.12064321 0.13648674 0.0018357612
000050 b6 45 98 bd 5e 5c 21 3d 95 ec 70 3c 48 98 92 bc
       -0.07435171 0.03939473 0.014704843 -0.017894879
000060 6a 6e 27 bb 65 c5 94 bd bc 51 bb 3d 74 14 df bd
       -0.002554799 -0.072642125 0.09146449 -0.10892573
000070 05 6a 36 3e d7 ef c8 3d 3e 3e 0b bd 7b 5c bb 3d
       0.1781388 0.09811371 -0.033994906 0.091484986
000080 89 ae a6 3c 94 ca ed bd e4 45 60 3d 4d b5 c7 bc
       0.020346897 -0.11610904 0.054754153 -0.024378443
000090 41 44 24 3e ab 9d 15 3e 73 f1 d3 3d da 3f 8f bd
       0.16041662 0.14610927 0.10348787 -0.069946006
0000a0 c4 82 96 3d d2 96 13 3b 60 7b 1e be ef f8 09 3e
       0.0734916 0.0022520316 -0.15476751 0.13473867
0000b0 b1 4a fb bc a7 23 56 3a 3d 92 1f 3e 1c 84 b3 bd
       -0.030675264 0.0008168765 0.15583129 -0.08765432
0000c0 4c 71 03 3d 04 e0 49 3d c8 0a ff 3d 19 84 16 3e
       0.03209047 0.049285904 0.12453228 0.14698829
0000d0 ce 3d f0 3d 49 99 84 3d 4d aa db 3d cf fb 3b 3b
       0.11730538 0.06474549 0.10725842 0.0028684025
0000e0 83 0d a2 3d 81 11 b5 3d 85 bc 0d 3e 41 48 bf 3d
       0.079127334 0.08841229 0.13841446 0.09339953
0000f0 b5 a1 8f 3c 23 89 7c bd 35 7b 26 3c 39 bb 07 be
       0.017533163 -0.06165422 0.010161211 -0.13255014
000100 49 f1 ee bd aa e1 e3 3d 5f 56 63 bd aa b3 b3 bd
       -0.11667115 0.111270264 -0.05550229 -0.087745026
000110 2a 06 a9 3d 59 fb 42 3e 87 03 3c be 14 b7 e7 bb
       0.08253129 0.19041194 -0.1836072 -0.007071385
000120 f8 fa 8a bd 96 14 27 be 35 b1 e5 bc a2 c6 45 bb
       -0.0678615 -0.16316447 -0.0280386 -0.0030178209
000130 43 eb d2 3c bc 1f 68 bd 52 c7 16 3e b6 05 17 3e
       0.025746947 -0.05667089 0.14724472 0.14748272
000140 f3 51 1d 3e c3 64 f9 bd fd a4 32 be d5 ec 11 3d
       0.15363292 -0.12177422 -0.1744575 0.03562625
000150 a3 8e ed 3d 7f be 07 3e 55 bf 38 3e ed 3b 20 3e
       0.115994714 0.13256262 0.18041737 0.1564786
000160 ae 28 9f bd fb c8 1f be d8 a6 27 be 1a 78 d0 3d
       -0.07771431 -0.15604012 -0.1637224 0.101791576
000170 be c6 69 3d e6 f3 cc bd 09 39 86 bd 79 f8 ac bd
       0.0570743 -0.100074574 -0.06553847 -0.0844583
000180 dc f1 12 3d ef 1c e5 bd 19 f8 07 3e d8 69 ba 3c
       0.035875186 -0.11187159 0.13278235 0.022755548
000190 cd 49 15 be 16 2d 42 be 4a 4e 9e bd b0 43 37 3b
       -0.14578934 -0.18962511 -0.07729776 0.002796393
0001a0 1b 24 d5 bd 8f 71 06 3c 61 35 db bd d3 89 b5 3d
       -0.10407277 0.008205785 -0.107035406 0.088641785
0001b0 a5 18 cf 3d 73 48 95 bd 41 c9 11 bd 9f 93 df 3c
       0.101121224 -0.07289209 -0.03559232 0.02729207
0001c0 e0 ca 1f 3e f4 7c 0d be 1c 7b 06 3d 6a ae 0d bd
       0.15604734 -0.13817197 0.03283225 -0.034590162
0001d0 23 df b3 bd 42 ef 85 bd 2e 8c fe bc 98 fc c6 3c
       -0.08782794 -0.065397754 -0.031072702 0.024290368
0001e0 97 6f 38 be 75 ed d9 3d 8d f2 97 bd 99 03 de 3c
       -0.18011318 0.106409945 -0.0741931 0.027101325
0001f0 c2 ae 48 3c ef 4b 83 bc 32 d9 98 3c 38 0e 17 3e
       0.012248697 -0.016027419 0.018658254 0.14751518
000200 a9 b3 03 3d a2 9e 38 3c d2 3c 42 3e e5 f3 ad bb
       0.03215376 0.01126829 0.18968514 -0.0053086155
000210 2f 9d d0 bd 3a 91 2b 3e ed d9 fe 3d 53 6a a1 bd
       -0.101862304 0.16754618 0.1244391 -0.07881608
000220 9e b8 da bd 8d 41 be bc bd b6 03 be 86 bf 41 be
       -0.10679744 -0.023224616 -0.12862678 -0.18920717
000230 21 db 8e 3d 0b c9 08 3e 78 99 1e 3e dd 8e 07 3e
       0.06975389 0.13357942 0.15488231 0.13238092
000240 ba b2 db 3d c2 04 26 3e e6 85 60 3d d8 cc f7 3d
       0.10727449 0.16212752 0.054815196 0.12099618
000250 99 04 06 be eb 05 b4 bc 14 76 bc 3d 83 08 c3 bd
       -0.13087691 -0.021975478 0.09202209 -0.09523108
000260 53 16 3f 3d bb ec 23 3c 8b e9 cb 3c 7a d2 2b 3b
       0.04665215 0.010005171 0.024891635 0.0026217983
000270 6d 91 03 3e 5c 68 2d 3e d5 3b 34 3d 44 90 20 be
       0.12848444 0.16934341 0.044002373 -0.15680033
000280 53 0a 06 3c 5a fb 25 3e b8 58 01 3e 95 b2 04 3e
       0.008181172 0.16209164 0.126315 0.12958749
000290 6e b8 a5 3d 89 55 7a 3d 5d 51 23 bd fb 71 16 3e
       0.08091818 0.06111673 -0.039872516 0.14691918
0002a0 51 a2 ff bd 98 04 25 3e 1a 9e 5e 3d 68 80 f1 3d
       -0.12482131 0.16115034 0.054349996 0.1179207
0002b0 9d 2e 8c bd be 37 16 be 60 ab 24 3d 6a 13 bb bc
       -0.06844828 -0.14669701 0.0402025 -0.022836406
0002c0 42 1a 13 be 4e 9a 02 be 8e 87 ed bd ca a1 d4 bd
       -0.14365485 -0.12754175 -0.11598121 -0.10382421
0002d0 6e 6b 13 3d 3d ea d2 3d 88 a9 0e 3c 6a cc 27 be
       0.035991125 0.10298584 0.008707412 -0.16386572
0002e0 32 87 b3 bd 53 4f 2b be df 99 f7 3d ff 02 ec bd
       -0.08766021 -0.16729479 0.120898955 -0.11524009
0002f0 04 eb 9d 3d ab d9 c3 3d b5 f6 a0 3c 3b 6b 09 be
       0.07710841 0.09563001 0.01964889 -0.13419811
000300 76 aa 52 3d 2c 42 cb 3c 13 2f 58 3d 2a 99 23 be
       0.051432095 0.024811827 0.05277927 -0.15976396
000310 aa 42 80 bd f6 aa dd bd 18 b1 af bc 28 24 6b bd
       -0.06262715 -0.10823624 -0.02144675 -0.05740753
000320 9f cb 2e 3d 98 8e 04 be 0d 79 9f 3c 55 5e 7f 3b
       0.042674657 -0.1294502 0.019466901 0.0038966138
000330 30 76 d6 3d ce b0 06 3e 05 a6 0f 3e c9 60 ef b9
       0.10471761 0.13153383 0.14028175 -0.00045657743
000340 5f 78 25 3e f4 05 13 be 79 7f ed bd 6f 9f 34 bd
       0.16159199 -0.1435774 -0.11596579 -0.04409736
000350 52 73 e0 bd fb 30 f6 3d 27 5c 0b be 4c 17 3f 3e
       -0.109594956 0.12021061 -0.13609372 0.18661231
000360 b2 26 6e 3d 5f 32 ca 3d 57 53 2e 3e 93 50 cd 3b
       0.05814237 0.09872889 0.17023979 0.0062657087
000370 48 c4 52 3e 6e ab d3 3b d0 fe 0e bd aa c4 03 3e
       0.20582688 0.006459645 -0.034910977 0.1286799
000380 2a 65 2a 3c 80 6e 06 3c d4 01 a9 3d 30 6c c3 bd
       0.010400096 0.008205056 0.08252302 -0.095421195
000390 b4 2c 61 3d 1c de 16 3e 31 bc fc 3d d1 63 c3 3d
       0.054974273 0.14733166 0.12340582 0.09540523
0003a0 22 bd a8 bd a5 0b 39 be e3 23 3b be 4f dc 0e 3e
       -0.08239199 -0.18070848 -0.18275408 0.13951229
0003b0 47 6d 0c 3e 20 dd d6 3d 4e 90 27 3e db 1f 6a bd
       0.13713561 0.10491395 0.16363642 -0.057159286
0003c0 40 ba 21 be 1e 6a e5 bd 0b 55 8a 3d 0e d8 be bd
       -0.15793705 -0.11201881 0.06754502 -0.09318553
0003d0 aa b1 95 bd f3 5a e5 3d b8 7c 17 be 8e 4f fb 3d
       -0.07309277 0.11198988 -0.1479367 0.12271033
0003e0 f3 42 02 3e 0c 28 1e 3e d5 76 02 be d8 02 4b 3d
       0.12720852 0.15444964 -0.12740643 0.04956326
0003f0 2a 16 91 bc 5d 71 13 be da 2d a8 3a 67 8c d1 3d
       -0.017710764 -0.14398713 0.0012831048 0.10231858

arith.constant2 f4 [128, 12]
000000 88 a5 a8 bd c3 1e 20 be b9 8e 4e 3d 5c 32 78 39
       -0.082346976 -0.15636735 0.05042908 0.00023669883
000010 db 81 88 3d 81 92 13 be da 5c 3f 3d 95 e8 22 3d
       0.06665393 -0.14411356 0.04671941 0.03977259
000020 04 cd b7 bc 41 04 2c be df ce ee 3d c9 7f 46 be
       -0.022436626 -0.16798498 0.11660551 -0.19384684
000030 2f 8a d3 3d b3 69 fb bd e4 7d 57 3e b7 a0 a3 bd
       0.10329091 -0.1227602 0.21044117 -0.07989638
000040 68 47 b8 3d 2c a3 cf bd 0b 30 d7 bd f3 09 43 bc
       0.08997995 -0.101385444 -0.1050721 -0.011904228
000050 91 eb 13 3e 2c cd ea 3d fd 89 f9 3d ae e6 ae bd
       0.1444533 0.11464915 0.12184522 -0.085400924
000060 c1 23 50 be 9c e1 06 3e 66 73 ae bd 49 7f 01 3e
       -0.20326139 0.13172 -0.08518104 0.12646212
000070 62 40 a6 3b 5f ba 89 3d 09 80 89 be db 4f 3e 3e
       0.005073593 0.067250006 -0.26855496 0.1858515
000080 16 54 fc 3d a1 10 e4 3c 74 90 3f be 56 30 c6 3d
       0.123207256 0.02783996 -0.18707448 0.09677188
000090 69 69 2b be 59 38 e0 bd bf 37 b9 3d e6 4f 11 be
       -0.1673943 -0.109482475 0.09043836 -0.14190635
0000a0 01 92 f7 3a 77 9a 6f 3e 07 a9 bc 3c 2b 70 82 3d
       0.0018888117 0.23398767 0.023029817 0.063690506
0000b0 5e 8a 46 3d 96 16 0a be d5 7f 44 3e b2 b8 30 3d
       0.0484718 -0.13485178 0.19189389 0.04314489
0000c0 fb 72 6c 3d 84 b6 f3 3d 27 bb 20 3e 7e 56 8a 3c
       0.05772684 0.119000465 0.15696393 0.016886946
0000d0 40 7f c6 3b 4a d5 d4 bd 92 b2 06 3e ed 5b ab 3d
       0.00605765 -0.10392244 0.13154057 0.08367143
0000e0 d6 80 1f be 19 d9 b1 3c 37 09 c8 3d 85 45 54 3e
       -0.15576491 0.021709966 0.097673826 0.20729645
0000f0 e5 47 a5 bd 31 15 4f 3c 10 23 ca 3b dd 09 5e 3d
       -0.080703534 0.01263933 0.0061687306 0.054208625
000100 7a 58 15 3e a0 27 5a 3e 7f 1c 88 bc 34 58 02 3e
       0.14584532 0.21304178 -0.01661515 0.1272896
000110 47 ca 46 3e 7f ed 0d be 54 72 c9 bc c3 62 87 3e
       0.194131 -0.13860129 -0.024590649 0.26442537
000120 53 42 41 be f4 28 93 bd 63 3d 37 3e f8 e2 fe bb
       -0.18872957 -0.071855456 0.17894511 -0.0077785216
000130 a6 21 02 be 39 9d 49 be bf 51 eb 3d 2e 2f 02 bd
       -0.12708148 -0.19688882 0.11490201 -0.031783275
000140 d0 81 33 be ed 05 2c 3d 4a f4 75 bd ca 2a 98 bc
       -0.17529988 0.04199784 -0.060047425 -0.01857509
000150 b4 10 10 3d 42 9f 2a 3d 06 bf 40 3d 28 d5 18 be
       0.03517218 0.041655786 0.047057174 -0.14925063
000160 b9 38 17 be 3a 26 cf bd 9e 22 12 3d eb 48 a8 bd
       -0.14767732 -0.10114713 0.035677545 -0.08217033
000170 8b 5c 3c 3e 9c 9a 68 3a d0 d5 45 be d3 04 c2 bd
       0.18394677 0.0008873136 -0.19319844 -0.094735764
000180 b0 e1 18 3e 2b e2 04 3d d0 a6 8a 3d 32 f3 67 bc
       0.14929843 0.032442253 0.06770098 -0.014157103
000190 11 98 43 3e d3 3f fd bb a1 e6 18 be 28 56 d5 3d
       0.19100977 -0.0077285557 -0.14931728 0.104168236
0001a0 bf d2 35 3e d2 17 94 bc 9a 65 2c bd 09 15 53 be
       0.17756175 -0.018077765 -0.042089082 -0.20613493
0001b0 ee 79 4d 3e 9a 19 0d 3e 14 b3 40 be 8f b0 ab bc
       0.20066044 0.13779297 -0.18818313 -0.020958213
0001c0 cb c0 41 bd c5 52 ef bc 7c 45 be 3d 55 65 8d 3d
       -0.047303002 -0.029214272 0.09290597 0.06904093
0001d0 f1 5b 35 3e d4 6d b1 3c 91 ee 26 3d 25 2c fd bd
       0.17710854 0.021658815 0.04075486 -0.123619355
0001e0 30 90 19 be b2 21 19 3e 8b 0f ed 3d 93 9a 91 bc
       -0.1499641 0.1495426 0.1157523 -0.017773902
0001f0 3d a8 59 be 69 69 09 3e cf ec 6c be 6a b9 03 be
       -0.21255584 0.13419117 -0.2313721 -0.12863699
000200 5a 1b cc 3d ab 8e 11 3e e5 69 93 bd 9d b0 93 bb
       0.099661544 0.1421458 -0.07197932 -0.004507138
000210 5d 53 e4 bd 40 09 5c bd c2 a1 6d bd d2 7c d3 bc
       -0.11148713 -0.05371976 -0.058015592 -0.025816355
000220 bf 2e 03 3e b5 db ef 3d 8a 10 d3 bd a8 08 c2 3d
       0.12810801 0.11711828 -0.10305889 0.09474307
000230 a7 bf 89 be 55 1e 5f bd 68 ae 63 be 82 12 e5 3d
       -0.26904032 -0.054472286 -0.222345 0.11185171
000240 42 fd e4 3d 72 eb 29 be 2d ed de 3d f2 8e 29 be
       0.111811176 -0.16593722 0.108850814 -0.16558436
000250 ac 51 66 3d 53 b4 39 be da bd 32 be c7 ab c0 ba
       0.056230232 -0.18135194 -0.17455235 -0.0014699631
000260 8d 0c 7b 3c 4e 26 6a 3c 73 c7 2b be a3 20 ce 3c
       0.015322817 0.014291359 -0.16775303 0.025162047
000270 92 96 26 3e 8f bd 8c bd bd 67 21 3d 8e 7e 2d be
       0.16268376 -0.06872093 0.039405573 -0.16942808
000280 d2 97 8c 3d 1b 9d b1 3d 0e e9 ad 3d 9c 84 53 3c
       0.06864895 0.086725436 0.08491717 0.0129100345
000290 fe 94 6b 3e 29 fe 53 bc 6b 43 a8 bd ae d9 21 be
       0.23006055 -0.0129390145 -0.08215984 -0.15805694
0002a0 64 df 0c bd 42 67 83 bb fd cb 8b be a7 c3 b7 3c
       -0.03439273 -0.004010112 -0.27304068 0.022432161
0002b0 e4 13 75 bd 96 33 a5 bc a6 a4 51 be 97 68 76 bc
       -0.059833422 -0.0201662 -0.20472965 -0.015039585
0002c0 d8 ac cb 3a db d5 e8 bd 8b e8 9c 3c 10 de 83 3d
       0.0015539182 -0.11368915 0.019153854 0.064388394
0002d0 9f ee 7a 3e 7a 2a 46 be d1 e3 34 be e6 24 bc 3d
       0.24505089 -0.19352141 -0.1766503 0.09186725
0002e0 c8 c0 9a bc 01 68 3b 3e 83 14 98 3b 05 48 3e be
       -0.018890753 0.18301393 0.004641117 -0.18582161
0002f0 bd aa 23 be 71 32 82 3d e7 88 f0 bd 6b 85 fa bd
       -0.159831 0.06357277 -0.11744862 -0.12232479
000300 ff ba e2 bc e2 0c 31 be a5 8f 29 bd 89 91 21 be
       -0.027677057 -0.1729007 -0.041396756 -0.15778174
000310 de 3f 33 3e b7 bc 30 be 45 56 59 3e aa 1b d0 3d
       0.17504832 -0.17259489 0.21224315 0.101615265
000320 0e dc 39 3e a5 c3 24 be 83 c5 26 3e 4b d4 39 3d
       0.1815035 -0.16090257 0.16286282 0.045368474
000330 59 fb ec bc 5b d1 09 3e 7a 44 e8 bc f6 8d ec 3d
       -0.028928446 0.13458769 -0.028352965 0.115505144
000340 da f9 a2 bd c1 53 e9 bd 4a 92 86 bd 51 ad c1 bd
       -0.07957812 -0.11392928 -0.06570871 -0.094568856
000350 a7 ea fd 3d 5b 33 ac bc 8f 05 da bd e6 ac 28 bd
       0.12398272 -0.021020582 -0.106455915 -0.041180514
000360 7b e0 43 3e 02 d3 dc bd 1f e5 13 be 14 62 0a 3e
       0.19128601 -0.10782434 -0.14442872 0.13513976
000370 b9 dd 19 3e a0 3c 93 bd c4 0d 4d bd 76 e3 97 3d
       0.15025987 -0.07189298 -0.050061956 0.074164316
000380 da b2 fd 3d 67 2b bc bc 5c f9 89 bc 98 00 a8 bd
       0.12387629 -0.022969915 -0.016842537 -0.08203238
000390 9e a4 03 3e 2e 62 64 bd 90 8c 34 3d 28 f1 2c 3e
       0.12855765 -0.055757694 0.044079363 0.16888869
0003a0 dd 10 34 3d cc eb 1f be 27 e9 58 3d 75 a9 fd 3d
       0.043961395 -0.15617293 0.052956726 0.12385837
0003b0 f0 f8 97 be 3f 5c 22 3d 85 c6 98 bd 82 c2 2e be
       -0.29682112 0.039638754 -0.074597396 -0.17066386
0003c0 40 cc 1a 3e 83 73 53 bd 8e 66 f0 bc cc ee 97 bd
       0.15116978 -0.051623832 -0.029345777 -0.07418594
0003d0 2f f1 2c be 00 70 16 3d f6 8f e6 bc e6 26 12 be
       -0.16888879 0.036727905 -0.028144818 -0.14272651
0003e0 db 2c bc bd cb c3 be bc d0 1d 03 be 34 b9 ce bd
       -0.09188243 -0.02328672 -0.12804341 -0.100939184
0003f0 2b 4b 3a bd 92 26 06 3e b1 6a f2 3d b8 c3 55 3c
       -0.045481842 0.13100651 0.11836756 0.013047151

arith.constant29 f4 [64]
000000 44 99 29 3d f8 ff 0e 3d e2 fd db bc f6 55 d2 bc
       0.04140593 0.03491208 -0.02685446 -0.025675755
000010 a4 e2 e0 bb 87 81 39 bd 8e 35 c9 bc 90 e9 7c 3d
       -0.006862955 -0.045289543 -0.02456167 0.06174618
000020 b9 c5 96 bd 69 ba 98 3d 89 da 9f 3b 88 2c 90 bd
       -0.07361931 0.0745743 0.0048783463 -0.07039744
000030 ff a1 ce bb dc 1b ed 3c 2d 72 87 bd f6 5d 12 bd
       -0.0063059325 0.028943948 -0.06613574 -0.03573414
000040 ce 40 11 bd af 19 46 3d 84 98 50 bc 9c 53 83 bd
       -0.035462193 0.048364338 -0.012731675 -0.064124316
000050 48 c5 c2 bc 6a 6c 76 bc 6d b1 11 3c db 69 86 bd
       -0.023775712 -0.015040496 0.008892399 -0.06563159
000060 2a a5 37 3d b8 ec 46 bd c3 ef 83 bd 08 f3 2e 3c
       0.044835247 -0.048565596 -0.06442215 0.01067806
000070 69 ed 05 3d 42 ae 44 bc 5d 5e 45 3d 8c ba 33 bd
       0.032697115 -0.012004437 0.048185695 -0.043879077
000080 cd 0e 43 3c 87 9d d0 bc 34 47 ca bb df a5 11 bb
       0.011905384 -0.02546574 -0.006173039 -0.002222411
000090 eb 37 7b bd a0 4b a7 38 a7 4b b8 bb 9b 4a 1b 3c
       -0.061332624 7.977267e-05 -0.005624253 0.009478237
0000a0 90 3d 91 bd 55 b2 68 3c 16 5d 2c bc d6 8f 13 3b
       -0.0709182 0.014202674 -0.01052024 0.0022516153
0000b0 d9 35 4f 3d eb 80 df bb c7 9b ef bc 63 59 94 bb
       0.050588463 -0.006820788 -0.029249085 -0.0045272573
0000c0 26 2a fe 3c d8 da 1b bd 55 f9 05 bb fb 39 6a bc
       0.031025957 -0.038050503 -0.0020442803 -0.01429605
0000d0 02 13 9f bc 29 be 99 3c e7 30 52 bb 03 92 45 bc
       -0.019418243 0.018767433 -0.0032072605 -0.012058738
0000e0 d9 42 b7 bd e3 fd b8 bc ca 64 28 bd f9 f9 84 3c
       -0.08948297 -0.022582 -0.041111745 0.016232478
0000f0 e3 23 e5 3b 84 33 74 bc 8b 6e 1f 3b a0 99 82 bc
       0.0069928034 -0.01490486 0.0024327363 -0.015942395

arith.constant30 f4 [128]
000000 30 aa f7 bc 89 7d 5f bd b8 c5 f9 bd 4a 41 a8 3d
       -0.030232519 -0.05456308 -0.12195915 0.08215578
000010 00 9b ba 3b a6 d4 9a bc fc 1a 72 bd e2 0a b5 bd
       0.005694747 -0.018900227 -0.059107766 -0.08839966
000020 94 2f 80 3d dc 4e f6 bc 9b 03 d4 bd 17 f6 ae bd
       0.06259075 -0.0300669 -0.1035225 -0.08543032
000030 f2 17 83 bd 88 d0 b4 3d be 7b 65 bd 3c 80 59 3d
       -0.064010516 0.08828837 -0.056026213 0.05310081
000040 a4 9f 72 bd 84 f2 11 bc 96 ac a9 3c 62 12 5b bd
       -0.059234276 -0.008907918 0.020712178 -0.053484328
000050 c6 33 f0 3b ef af 83 bd 33 09 fe bc 26 71 9b bd
       0.0073303906 -0.06430041 -0.031010246 -0.07589941
000060 db 5c 82 bd b4 ef 8b b9 46 55 82 bb 1b 4a e5 bd
       -0.06365367 -0.0002669074 -0.0039774505 -0.11195775
000070 37 17 86 bd f1 64 9c 3c 54 0b 60 bc e8 26 1c bc
       -0.06547397 0.019091101 -0.013674576 -0.00953076
000080 42 08 98 3d 19 2b c5 3b 62 e7 e8 bd 8a 5e 3e 3d
       0.0742345 0.0060171005 -0.11372258 0.04647688
000090 18 a3 03 3d 74 ba 9b 3c 39 3f 8f bc 57 b3 a1 bd
       0.03213796 0.019009806 -0.017486202 -0.078955345
0000a0 76 19 83 bc 93 50 6e bc 79 16 f1 bb f9 31 0f 3c
       -0.016003352 -0.014545578 -0.0073574153 0.008739942
0000b0 2d 89 1d bc a4 cc 27 bb 78 8f 06 bd 4c dd bb bd
       -0.009615225 -0.0025604153 -0.032851666 -0.091730684
0000c0 ec 84 ea bd 7d f9 54 bd 32 26 83 3d 7a a0 3f bd
       -0.11451134 -0.051995743 0.064037696 -0.0467839
0000d0 c0 c6 71 3d 61 b9 52 bc 32 d3 06 3d e6 d7 19 bd
       0.059027433 -0.012861581 0.032916255 -0.037559412
0000e0 96 73 26 bd 29 1f 42 bd db 1e 0c bc 53 96 4e bd
       -0.040637575 -0.047392998 -0.008552278 -0.05043633
0000f0 e9 9a 4c 3c 9b d9 ff bb e4 7d 03 bc 99 6c 39 3d
       0.012488105 -0.007807923 -0.00802562 0.045269582
000100 d1 26 95 bc 47 97 e2 3c 61 96 f3 3c 2d 3f ac 3c
       -0.018206986 0.027660025 0.029734792 0.021026218
000110 39 5c ea 3b 20 62 86 bd b6 63 aa 3c de 92 89 3a
       0.007152107 -0.065616846 0.020799499 0.001049604
000120 72 50 61 bd 25 a0 31 bc 6f 42 62 3c 58 11 ac 3d
       -0.05500836 -0.010841404 0.013809784 0.084017456
000130 88 2a 3f bd 9c e5 39 3c 1f 70 81 bd 02 53 c6 bc
       -0.04667142 0.011346247 -0.063202135 -0.024209503
000140 c1 0d a3 bc a9 7e f2 bc f0 08 04 3d b4 f3 0f 3c
       -0.01990402 -0.029601412 0.032235086 0.008786131
000150 34 f5 5c 3d 08 eb 2e bc b7 ad 9f bc e1 c7 bc 3b
       0.05394478 -0.010676153 -0.019492013 0.005761132
000160 13 df d0 bc 1e 8f 64 3c 71 fb ae bd 31 c3 b6 3d
       -0.025496995 0.013950137 -0.085440524 0.089239486
000170 c1 d9 66 bd f7 c9 0f bd 71 d2 5e bd 5f a8 8b bc
       -0.05636001 -0.035104718 -0.05439991 -0.017048059
000180 ad c9 db bc ff d7 00 3d 90 85 44 3c 6e 94 db bc
       -0.026829565 0.03145599 0.011994734 -0.026804175
000190 88 49 92 3c 9a 4d 13 bd d9 08 6a bd a7 dd 61 3c
       0.017857328 -0.03596268 -0.057137344 0.013785756
0001a0 4f 90 72 3c 3b 2f af 3c c2 18 1e bd 0b dd 84 bd
       0.014804914 0.021384826 -0.03859783 -0.06487473
0001b0 b3 c6 83 3d 72 30 4f 3d 10 11 bf bc ec 25 a4 bc
       0.06434383 0.05058331 -0.023323566 -0.020037614
0001c0 22 1a f7 bc 9e 7a 6b bb 43 49 b1 3b a8 8e 9a 3c
       -0.030163828 -0.003593124 0.005410345 0.018866852
0001d0 b4 9c 02 bd 6e f0 9f bd c9 21 b6 bc 48 99 f4 bd
       -0.031887725 -0.0780953 -0.022232907 -0.119432986
0001e0 ef eb 5e 3b 05 91 60 3c 1e 70 fc bd d4 23 09 bd
       0.003401514 0.01370645 -0.12326072 -0.033481434
0001f0 34 dd c8 3c 4c dd 32 3d 9e 4d ef bc c3 3a 38 3c
       0.02451954 0.043668076 -0.029211815 0.011244479
